uHDR/MSESig505_0419.pth (torch, 3623 bytes, 6 tensors)

layer.0.weight f4 [5, 50]
00000000: 30f3 da3f 6b74 d63f 8689 ea3f 9bc8 c53f
00000010: 221a b73f 5dbd a03f 5748 853f 5474 8c3f
00000020: d6c2 793f 5ff2 5b3f de62 473f da98 063f
00000030: f4cd f03e e437 a73e b369 6a3e debe 283e
00000040: 0b51 2f3e 7bf2 e23d 15d7 febd 5d49 43be
00000050: 64b1 a9be 1a0b 093d 9869 1c3e 4d0f 383e
00000060: 3914 013e e195 803e 9369 783e 0d06 123f
00000070: d67d fb3e 35dd 2a3f cec7 d23e 7141 cd3e
00000080: ce68 2b3f 83ea 0a3f 4846 093f b30c f83e
00000090: bae9 053f 9241 fb3e f39a 4d3f 6abb 5d3f
000000a0: 717a 703f 8e5c 5a3f c6b3 603f 0d44 923f
000000b0: bff8 9f3f 37a5 683f 54c9 823f 29fe 9c3f
000000c0: bfb0 dd3f 82f3 83be b1ec 9a3f 4333 a33f
000000d0: ac8c ab3f ed13 a43f c8ec a83f 56e5 ac3f
000000e0: 9d92 9c3f 6f54 aa3f fdc3 b03f 2a8c a63f
000000f0: 77ec 933f 9cdb ad3f 9b17 913f 0d05 a63f
00000100: a2cc a23f 796c a13f d235 803f 572e 883f
00000110: fd6e 993f 56c6 8b3f 6c90 683f f1d2 853f
00000120: bcbf 903f 12ef 6b3f b35f 553f 1dfc 723f
00000130: 09cf 603f 0a79 843f 176b 7f3f 5496 7f3f
00000140: 0000 763f 661b 6f3f 51fa 843f 7b82 6e3f
00000150: 68af 493f d88a 4f3f 28a8 6f3f 17a7 5c3f
00000160: 6abd 193f f23a c83e c4e3 aa3c 1137 54bf
00000170: 0a7a 26c1 0248 b7c0 5ff9 88c0 0d82 89c0
00000180: e5c5 97c0 8b89 a2c0 d3a7 b5c0 9df7 683d
00000190: 559e dd3e 6cb3 063f cb38 803e 3cfd f13e
000001a0: 73c7 df3e 3632 f33e 291e 223f 390e b73e
000001b0: f2c3 073f 698c 783e 96ca 9e3e 02f8 c23e
000001c0: 4d93 bd3e b6df f93e 7354 193f 7aa8 2e3f
000001d0: fb4f 7e3f a6a3 aa3f 82d2 da3f 0fc8 1340
000001e0: f8c2 1440 3d17 1140 2f1b 1540 9ac3 0f40
000001f0: 3434 0440 2896 0240 bbe0 0240 d2b1 fc3f
00000200: 6018 f33f 4696 f33f 27f7 ed3f 172d f63f
00000210: 08bb e83f 6b99 ff3f a6fd e83f 042b f93f
00000220: dfc9 f73f 1332 e33f 9a49 d43f 6c99 e33f
00000230: eee8 df3f 4ec4 ea3f 6c60 e73f 9eb9 f93f
00000240: 370c ea3f 3212 f63f 5d14 f23f 268f e93f
00000250: f68d f93f 21ea ddbd 9239 b0bf ab5e 8c3f
00000260: 338d 933f 4a5a 8d3f 1c7c 623f 82a8 743f
00000270: 9dd4 8c3f b5b3 883f d972 893f e04a 8c3f
00000280: 4418 843f 40aa 9b3f 24f8 a13f 74cb 973f
00000290: 3ddb 913f 1560 a23f f3d1 a43f 5553 8d3f
000002a0: 7610 a93f f53a a13f 6d86 963f e96d 923f
000002b0: 8700 ab3f 1988 a33f ea96 9d3f c8a9 ab3f
000002c0: 83c4 a13f 3d8c a53f ecb7 a43f 5290 a03f
000002d0: 20fe b33f 33fe 9b3f 123f a43f 8dbc 9f3f
000002e0: 7833 933f 7022 963f cfb2 a23f 8d35 b83f
000002f0: f2fe a03f 8c00 ae3f 7a90 b23f 6faa ad3f
00000300: 96e7 9f3f 81d7 8f3f 49a9 8d3f 2a95 a83f
00000310: 1f26 ab3f 6b9b 8c3f a9d0 903f ac34 323f
00000320: 7a4d 82bf 2ea1 60bf 24d7 45bf 503d 36bf
00000330: 6dc1 63bf 41b3 3cbf 9587 1dbf da1b febe
00000340: 2b57 85be dd9d b33e 5718 853f 6a8e a93f
00000350: 1136 b83f ac37 b33f e146 a63f 007d b93f
00000360: bb0f c23f ba79 b33f a4e9 ab3f 70c6 ca3f
00000370: 8cae b83f dfa3 d93f 2bf2 da3f b26d dd3f
00000380: b6a7 dd3f 0da7 0540 9b67 1140 6b4c 0c40
00000390: 03a2 1240 dac0 2140 ed9a 3440 8ae3 2a40
000003a0: 2011 3740 d3eb 2740 2632 3340 df1c 2340
000003b0: c774 2340 242a 1540 7dad 1a40 e6cc 1740
000003c0: da6a 1140 2ae7 1040 f371 e43f ec3a 6c3e
000003d0: 910e 1dbf 9ef4 973e 4068 953e 30cc d13e
000003e0: 5d19 1f3f cfa1 c3bd
1.7105465 1.6754278 1.8323219 1.5451845 1.430485 1.2557789 1.0412701 1.0973
0.9756292 0.85916704 0.77885234 0.5257698 0.4703213 0.3265983 0.22891884 0.1647906
0.17120759 0.11081406 -0.124433674 -0.19070955 -0.3314315 0.033457853 0.15274656 0.17974587
0.1260537 0.2511435 0.24259023 0.5704048 0.49119443 0.66743785 0.41168064 0.4008899
0.66956794 0.54264086 0.53622866 0.4844719 0.52309763 0.49073464 0.8031456 0.86614096
0.9393683 0.8529748 0.8777431 1.1427017 1.2497786 0.908771 1.021769 1.2265064
1.7319564 -0.2577172 1.2103482 1.2750019 1.3402305 1.2818581 1.319726 1.3507488
1.2232243 1.3307017 1.3809811 1.3011525 1.1556538 1.3582644 1.1335329 1.2970291
1.2718699 1.2611228 1.0016425 1.0639142 1.1986996 1.0919902 0.9084537 1.0454999
1.1308513 0.9216167 0.8334915 0.94915944 0.8781591 1.0349438 0.9977278 0.9983876
0.9609375 0.9340118 1.038889 0.9316785 0.78783274 0.81071234 0.9361596 0.8619246
0.6005465 0.39107472 0.02086056 -0.82896525 -10.404795 -5.72754 -4.280441 -4.2971253
-4.742907 -5.07929 -5.6767364 0.056876767 0.4328486 0.52617526 0.2504333 0.47263515
0.43706855 0.47499245 0.6332727 0.3575304 0.53033364 0.24272312 0.31013936 0.3807984
0.37026444 0.4880349 0.59894484 0.68225825 0.9934079 1.3331192 1.7095492 2.3090856
2.3244 2.2670434 2.3297842 2.2463136 2.0656862 2.0404148 2.0449665 1.9741766
1.8991814 1.9030235 1.859105 1.923251 1.8182077 1.9968694 1.8202407 1.9466252
1.9358481 1.7749656 1.6584961 1.7781196 1.749296 1.8341157 1.8076301 1.9509771
1.8284978 1.9224303 1.8912464 1.824681 1.9496448 -0.10835672 -1.3767569 1.096639
1.1527466 1.1043179 0.88470626 0.9556962 1.1002384 1.0679842 1.0738174 1.096035
1.0319905 1.2161331 1.2653852 1.1858964 1.1395031 1.2685572 1.2876571 1.1041056
1.3208148 1.2596117 1.1759773 1.1439792 1.3359536 1.2775909 1.231168 1.3411188
1.2638096 1.2933422 1.2868629 1.2544043 1.4061928 1.218695 1.2831748 1.2479416
1.1500082 1.172926 1.2710818 1.4391342 1.2577803 1.3593917 1.3950341 1.3567637
1.249255 1.1237642 1.1067287 1.3170521 1.3371009 1.098493 1.1313678 0.6961162
-1.0179894 -0.8774594 -0.77281404 -0.71187305 -0.8896702 -0.7371102 -0.61535007 -0.49630624
-0.26043066 0.35081378 1.0398053 1.3246586 1.43915 1.4001365 1.299038 1.4491272
1.516105 1.4021523 1.3430676 1.5841808 1.4428267 1.7003134 1.7105154 1.7299101
1.7316806 2.088321 2.2719486 2.1921642 2.2911384 2.5273957 2.821956 2.670138
2.8604202 2.6237686 2.7999358 2.5486372 2.5540025 2.330697 2.416839 2.371881
2.2721467 2.2641091 1.7847275 0.23069352 -0.6135035 0.29678816 0.291811 0.40976095
0.62148076 -0.09552347

layer.0.bias f4 [5]
00000000: 4f87 13be 15e5 353d 7799 79bd 3d08 313f
00000010: b779 52bd
-0.14407085 0.044407923 -0.06093737 0.69153196 -0.051385608

layer.1.weight f4 [5]
00000000: e05b e53e 599c 993e 9b49 2e3e befd 9c3b
00000010: 7f4f 3ebe
0.44796658 0.30002096 0.17020266 0.0047909906 -0.18585013

layer.1.bias f4 [5]
00000000: ab36 8fbf 5660 79be 32b5 b33e 394d 623f
00000010: f326 e43f
-1.1188558 -0.24353155 0.3509918 0.8839908 1.7824386

layer.1.running_mean f4 [5]
00000000: d825 b641 25dd 24c1 eac7 6f42 7eff 3842
00000010: edaf 6542
22.768478 -10.30399 59.94523 46.249504 57.421803

layer.1.running_var f4 [5]
00000000: 4f5a a741 c234 8842 e0f3 5e42 865d 8342
00000010: 4418 4142
20.919096 68.10304 55.73816 65.68266 48.273697
